lstm_autoencoder.pth (torch, 104417 bytes, 12 tensors)

encoder.weight_ih_l0 f4 [256, 7]
00000000: 73dd ac3c 642f 973d 748b 393c 982c 87bd
00000010: 419a b0bd 391e 023d cb21 91bd 29c8 a3bd
00000020: ab26 a03d 3edf 3abd 71d2 8a3d e4fd 233d
00000030: f6fc 223e 01ba 8ebc 9074 64bd c480 c53b
00000040: 86c1 053e 96ef 41bd e090 8d3c d23c 0e3e
00000050: a081 fe3c 5887 83bd dd9b bdbd 0a6d c53d
00000060: c036 c8bd 0539 763c 7de8 b5bd e770 b4bd
00000070: 2999 0bbc 4e33 2abd 74d4 4fbd 175b 6d3c
00000080: fa07 843d e222 ba3d 0da6 bf3d 223c 3ebc
00000090: 00da e9bd 17a2 8bbd 7ab7 363d 3c90 9e3c
000000a0: 880b 0bbd b580 05be 0221 e9bc 4230 dcbd
000000b0: 2a84 60bd 216f 9c3c 1cc2 6a3d 99cc 19bc
000000c0: f255 193e 1002 5a3c ac6d b53d 8d7c 0ebd
000000d0: 9c1b cb3d 2832 3eba 669c 17be 3fb5 163d
000000e0: babe 053e 7a0b 2ebd 90c5 78bd bc91 c2bd
000000f0: 9c4a a3bd 7d7b a5bc 0104 15bd 22a8 f23d
00000100: 52f6 873d a513 d93d 5ee3 75bd e0d7 c3bd
00000110: a948 11be ce0b baba 3c45 b63c afae abbd
00000120: 6230 64bd 7007 cc3d 1b9c abbd fbda 003e
00000130: 02f3 debc 6db2 59bd caa9 bd3d 391e aabd
00000140: 3f93 ab3d b29f 99bd b0ce 3ebd 75a4 88bd
00000150: 6558 49bc a342 773d b5bc 90bd 1cf8 473c
00000160: dd13 94bd e45f 363d e106 003e 9e77 57bc
00000170: bbeb 97bd 9646 cfbd 15e1 c7bd ffbd dbbd
00000180: 66a9 8bbd e90c 073e 67b3 ccbc eeb3 c13b
00000190: 16c0 cebd c9bb acbd 64fa 303d bf4f 05be
000001a0: 0db1 183c 9ea1 80bd f97d c2bd a437 523c
000001b0: 8e35 d23d 9e91 523d d195 a8bd f5d6 933d
000001c0: 6ec3 e73c dfe3 22bd d0da bbbd 6590 bc3d
000001d0: e9e3 a6bd 1613 d93c 9b4e 3fbd 67ff e5bc
000001e0: 6e8a be3d e07f 9c3d f58e 8d3c 67ee 51bd
000001f0: a6dd 96bd b205 033e 65a2 7ebd 41b9 c9bd
00000200: fa00 04bc 3436 84bd 24c4 00be 089d 103d
00000210: 3186 573d 7f99 c83d 8953 9e3d c1ad dabc
00000220: 1879 d7bc 888f a8bd 1c00 b239 97b4 debd
00000230: b8bf db3d c4d6 9b3c 4daf c73d 7fa8 09bd
00000240: d38a 143d 3a0f d03c ac53 cdbc 146e 0cbd
00000250: b025 2e3d a3f2 ccbc ea81 27bd c548 12bd
00000260: 94ed 053c 35e6 e43d 6e6b eebd 315b 69bd
00000270: 7c85 f33d 9581 d63c be68 d7bd 0322 50bd
00000280: 10a3 173d 8e7b b03c 7fc9 e63d 5e60 27bc
00000290: 8969 cabc 6f6e 96bc a4b7 fdbd ca17 cdbd
000002a0: 371c d93b bbba e1bd e221 d4bd 9511 c23c
000002b0: e7bd bcbd fc6f fa3d c05b fa3b e30c 1b3d
000002c0: ccc3 06bc 0839 093e 9e0b 803d 3658 153c
000002d0: 96e0 b13d 7393 9c3d d612 c1bd cca5 403d
000002e0: a2b4 b33d a028 0e3c 11fb ddbd e49d 12be
000002f0: 4fa6 1e3d ce47 6dbd 2b14 0c3d c9c9 d63c
00000300: 157d 133e 537e 8abd 68af 98bd d024 95b9
00000310: 8628 40bd 6d44 9c3d 1fa3 e53d 5ea5 033e
00000320: 33f9 efbd 6804 88bd a0f2 f0bd 5dce 103c
00000330: 8806 603d 557b 49bd f9c2 c23d f61b 68bc
00000340: 7614 543d 7811 d63c ab6c b43d fd50 a7bc
00000350: 8aa4 ad3d 999e 103d 22af 133d 793b ca3d
00000360: a015 2b3d 02fe 113e f953 d33d b084 37bc
00000370: 0c3d cb3d b4eb dbbd a79e 943d 8d6e a83d
00000380: 2afc 8c3d b40f 143d 44ef 203d 4639 f93c
00000390: 3590 af3d 0e11 f6bc e1e9 debd e9e4 023e
000003a0: e7cc 923d 723d 79bd b35a 6fbd e321 4f3d
000003b0: 1f8e c73d 9b30 913d 850c d23d 1dc9 0fbd
000003c0: f3b1 f839 57aa c83d 568c a43d b57e 643d
000003d0: 16aa c7bd ac76 1ebd c470 c73c c112 b73d
000003e0: a0b3 a2bd 86cf 7bbd fbcb 523b 0a92 f03d
000003f0: 6a6d 85ba f786 26bd 3a60 78bd 768f 80bd
0.021101689 0.07382086 0.011324752 -0.066003025 -0.086231716 0.031767104 -0.070865236 -0.07997162
0.07819875 -0.045623057 0.0677842 0.04003705 0.1591681 -0.017422678 -0.055775225 0.006027313
0.13062105 -0.047347628 0.017280996 0.13890389 0.03106767 -0.06422299 -0.09258244 0.09639938
-0.09776068 0.015028243 -0.08882234 -0.08810597 -0.008520403 -0.041552834 -0.05073972 0.01448705
0.06446834 0.090886846 0.093578435 -0.0116110165 -0.11418533 -0.068180256 0.04460857 0.019355886
-0.033946544 -0.13037379 -0.028458122 -0.10751392 -0.05481354 0.01909596 0.057314023 -0.009387159
0.14974192 0.013306156 0.08858809 -0.03478675 0.099173754 -0.00072553987 -0.14805755 0.036793943
0.13061038 -0.042491414 -0.060735285 -0.09500453 -0.07973215 -0.020200485 -0.03638077 0.11848475
0.06638779 0.1059945 -0.060031287 -0.09562659 -0.14187874 -0.0014194192 0.02224981 -0.083829276
-0.055710204 0.09962356 -0.08379384 0.12583534 -0.027215485 -0.053148676 0.092609 -0.08306546
0.08377694 -0.075011626 -0.04658383 -0.06671993 -0.012289141 0.060366284 -0.07067243 0.01220515
-0.07230351 0.044525042 0.12502624 -0.013151078 -0.07418009 -0.10120885 -0.09759728 -0.10729598
-0.068194196 0.13188519 -0.02498789 0.005911342 -0.10095231 -0.08434255 0.04320754 -0.13018702
0.009319556 -0.06280826 -0.094966836 0.012830649 0.10264121 0.051408403 -0.082317 0.07218734
0.02829143 -0.039768096 -0.091725945 0.092072286 -0.08148939 0.026498359 -0.046705823 -0.028075887
0.09303747 0.07641578 0.017280081 -0.05125275 -0.07366495 0.12795141 -0.06216659 -0.098497875
-0.008056873 -0.06455651 -0.12574822 0.035306007 0.05261821 0.09794902 0.07730777 -0.02669418
-0.02630286 -0.082305014 0.00033950887 -0.108742885 0.10729927 0.019023307 0.09750233 -0.033607956
0.036265206 0.025397886 -0.025064312 -0.034284666 0.04251641 -0.025018042 -0.04089538 -0.03571393
0.008174319 0.11176721 -0.11641584 -0.056971733 0.118906945 0.026184836 -0.10518025 -0.050813686
0.037020743 0.02154329 0.11268901 -0.010215847 -0.024708526 -0.018363206 -0.12388542 -0.10014303
0.006625678 -0.11021944 -0.10358025 0.023690024 -0.092159085 0.122283906 0.007640332 0.037854087
-0.008225393 0.13400662 0.06252216 0.009115269 0.086854145 0.07645311 -0.09427421 0.047033116
0.08774687 0.008676678 -0.10838903 -0.14318043 0.038732823 -0.057929806 0.03419892 0.026219266
0.14403184 -0.06762376 -0.07455331 -0.00028446922 -0.046913646 0.07630239 0.112127535 0.12856051
-0.11717453 -0.066414654 -0.11765027 0.008838263 0.05469373 -0.049189884 0.09509844 -0.014166823
0.051777326 0.026131377 0.08809789 -0.02042436 0.08478649 0.0353075 0.03605569 0.09874625
0.04176867 0.14257053 0.10318751 -0.011201069 0.09923753 -0.10738316 0.07256823 0.08224211
0.06884034 0.03614779 0.03929068 0.030422818 0.08572427 -0.03003743 -0.108844526 0.12782635
0.07167988 -0.060849614 -0.058436107 0.050569426 0.09743904 0.07089349 0.10256294 -0.035103906
0.0004743483 0.09798115 0.080345795 0.0557849 -0.09749238 -0.038687393 0.024345763 0.08939124
-0.07944417 -0.061477207 0.003216504 0.11746605 -0.0010179703 -0.040656056 -0.060638644 -0.06277363

encoder.weight_hh_l0 f4 [256, 64]
00000000: ee01 f53d 7f27 87bc 23ba 5f3d 8455 ce3c
00000010: ba44 0fbb bf3b db3d baec 01be 82a0 fb3d
00000020: da3c cfbc 5bbe bd3d 620e a2bb 6614 173b
00000030: bc19 86bd 0394 113d aee2 d5bd 0829 a53d
00000040: 4546 e23d 89d0 b73d 01ed f53d f634 c13d
00000050: 53a6 593c 1a7c 68bd f38c 97bd b15c 42bc
00000060: 26dc 81bd fc31 253c db91 95bd 2772 ce3c
00000070: 2f55 eebb 5360 ac3d 61ab 8e3d 1986 ff3c
00000080: 44c4 77bd 545c 033e 180f 803d a6c2 9fbd
00000090: 865e 4dbc 5f8d 513c 3175 81bc e88e 9d3c
000000a0: 5367 ddbd 9b68 4bbd 6444 a83c de90 c13d
000000b0: 5e4d b0bd 6154 b2bd 603d b9bd b401 17bd
000000c0: 6b16 f6bd b41d 883d 3a68 183d fb88 90bc
000000d0: 2bbd 383d e191 683d 3684 993d 6799 b4bd
000000e0: 0a1c cabd 5799 a7bb 931a e13d e3cd 0fbd
000000f0: 514e cabd 9ce8 0fbe f7c0 e43d 2b4c 6b3d
00000100: 38e1 013c 57b9 00be ba1f 753d edc9 08bc
00000110: 7c8f 283c 952d a8bd 781d 3abd 9418 b7bd
00000120: 723c 07bc b5a9 153d f647 80bd 0764 303d
00000130: 34d0 13bd 2803 d53d 8001 94bd a93d be3c
00000140: 5245 a1bd 7368 d13d 67c0 203d 4002 9bbd
00000150: a491 fbbc 1dc4 633d 1644 ad3d 3976 dc3c
00000160: 74bc fabb 1c95 553d 407f a6bd 938d 96bc
00000170: ae1d 883c 8e94 e5bd c2b2 ce3d 2769 00be
00000180: 8bbe b43d a223 95bd 10d1 e63d 9329 ab3c
00000190: ed24 c9bd ad8a 37bd 164f 0b3d 7fac d43c
000001a0: 1fd5 16bc 438d 333d 6cd6 213d 729c a0bc
000001b0: d6f9 973d 7919 e03d 1171 06bd 9721 efbd
000001c0: 08f1 863c e07c 0fbc 6bc0 973d 1384 ff3d
000001d0: f98b 4abd 5272 b7bd 5463 153d 920c d7bd
000001e0: a1da 8dbd 0710 0e3d b0bd c7bd e64f 4cbc
000001f0: fad0 5a3d 5c9c 643d e2f9 a93d 5efc f33a
00000200: 7c22 babc 8bda 17bc dd8e afbd 8ac3 713c
00000210: 944d 86bd f3ad 0a3e 46aa 0dbe f501 dcbc
00000220: d6ee 57bb 0de1 003c f6e5 9bbb e6ad b6bc
00000230: 998d 9dbc e055 c2bd 84c2 01be 0929 ad3d
00000240: b751 033d 4cef b53d 870a 2f3d fc5c 0c3a
00000250: 8d9b 8a3d d34d 663d 342d 7d3b 006c fdbc
00000260: 6126 8b3d 146c 9d3d 653d f9bc e6bc ad3c
00000270: eee5 0fbd 6708 fbbd 5b9a 093a 8d3e f53c
00000280: e880 983d 016a 403d fc6f 453d 98fe 8139
00000290: e8f8 1e3d f9cd 1abd 72eb 31bd 85ea 9bbd
000002a0: b6de bbbd 3282 10be 5d8f d8bd 6f47 dbbb
000002b0: f189 28bd b4ed 7a3d 293e 17bb e3e5 a83c
000002c0: e543 e7bd 7621 72bd 38f6 d33d cd67 813d
000002d0: 197a f4bc 2e9e b03d 4662 2bbd fa4a 723d
000002e0: 296e 91bd 7d2c a9bd 5142 f03d 86a1 1f3d
000002f0: 0191 03be 26bd 0cbe af99 e8bd 1856 15bd
00000300: d014 163d 348d b4bc e9de 213d 5797 023e
00000310: 98de 55bc a9e9 b03d 77b7 2c3d ad5d b93d
00000320: 1a2d 0dbd 7e28 2fbd 603d e1bd a167 dabd
00000330: 136c d0bc 0294 0bbd 0ea9 e5bb c02e 543b
00000340: 86e9 013d bc00 c83d a1d4 9fbd 60e9 43bd
00000350: a92a ce3d 5ded 0abd fc59 db3d 4a4e 923d
00000360: 6c7f a0bd 8311 de3d eeef 01be ec16 afbc
00000370: af00 59bd 5bdd 0c3c f27a 04be e6c7 8c3d
00000380: d616 04be b93f 1abd d34b b63d 8042 3b3d
00000390: 39a6 9fbd e736 fe3b 9ffc 01be 4a3b 83bd
000003a0: 5760 aabd bd68 7c3c 6d62 063c 56d5 b53c
000003b0: dd88 b8bc 6ef6 bfbd 859b 993c 69c4 bbbd
000003c0: f85a b23c 5235 913d 8cb2 57bd 4611 1fbe
000003d0: 7f2e 50bd df2a 01be 43b2 fc3c 39cd 8ebd
000003e0: 4eab e13d fc5a 403c adbd bfbd cc43 dfbd
000003f0: 3a77 c1bc 5154 c93d 0cd9 433d 2098 87bd
0.11963259 -0.016498325 0.054620873 0.025187261 -0.0021861033 0.10704755 -0.1268796 0.12286474
-0.025297571 0.09264823 -0.004945562 0.002305293 -0.06547877 0.035541546 -0.10443626 0.08064467
0.11048559 0.08975322 0.120080955 0.094339296 0.013284284 -0.056758977 -0.07399931 -0.01186292
-0.06340818 0.010082718 -0.0730321 0.025200916 -0.0072733383 0.0841681 0.06966282 0.031191872
-0.060489908 0.12828189 0.06252879 -0.07800798 -0.012534743 0.012790053 -0.015802952 0.019233182
-0.10810723 -0.049660306 0.020540424 0.09451459 -0.086085066 -0.087075 -0.090449095 -0.03686686
-0.12015995 0.066462904 0.037208773 -0.017643442 0.04510228 0.056779746 0.0749592 -0.08818322
-0.09868629 -0.005114715 0.10991397 -0.03510846 -0.09878219 -0.14053577 0.111696176 0.057445686
0.0079272315 -0.12570702 0.05984471 -0.008348924 0.010288116 -0.08211819 -0.04543826 -0.08940235
-0.008254157 0.0365388 -0.062637255 0.043064144 -0.03608723 0.10400993 -0.072268486 0.023222761
-0.0787455 0.10225 0.03924599 -0.075687885 -0.030709095 0.05560695 0.08460252 0.026911842
-0.00765186 0.052144155 -0.0812974 -0.018378055 0.016615715 -0.11209975 0.10092689 -0.12540112
0.08825406 -0.07282187 0.11270344 0.020893848 -0.09821496 -0.044809986 0.03401097 0.025961159
-0.0092060855 0.04383589 0.03951113 -0.019605849 0.07420699 0.109423585 -0.032822672 -0.11676329
0.016472355 -0.0087578 0.07409748 0.12476363 -0.049449895 -0.08957352 0.03647168 -0.105004445
-0.06926466 0.034683254 -0.09752977 -0.012470221 0.05342195 0.05581318 0.082996145 0.001861464
-0.022721522 -0.009268413 -0.08572171 0.014756093 -0.065577656 0.13542919 -0.13834485 -0.026856402
-0.0032948754 0.007866156 -0.004757638 -0.022299718 -0.019232558 -0.094890356 -0.12671858 0.084550925
0.03206035 0.08883533 0.04273465 0.0005354432 0.0676795 0.056226563 0.003863168 -0.030935287
0.067944296 0.0768663 -0.030424783 0.021208238 -0.035131387 -0.12257462 0.0005249136 0.029937053
0.07446462 0.046976093 0.0482025 0.00024794484 0.038811594 -0.037794087 -0.04343743 -0.076130904
-0.09173338 -0.14112166 -0.105742194 -0.006691865 -0.041147176 0.061261848 -0.0023077822 0.020617431
-0.11292247 -0.059113942 0.10349697 0.063186266 -0.029843377 0.086239204 -0.041841768 0.059153534
-0.071010895 -0.082604386 0.11731399 0.0389724 -0.12848283 -0.1374403 -0.11357438 -0.03645906
0.036640942 -0.022039987 0.039519224 0.12753044 -0.013053559 0.08638317 0.042167153 0.0905107
-0.03446684 -0.042763226 -0.109980345 -0.10664297 -0.025442159 -0.034076698 -0.0070086783 0.0032376498
0.031716846 0.09765765 -0.078042276 -0.047829986 0.100667305 -0.033917774 0.107105225 0.07143839
-0.07836804 0.10843184 -0.12689182 -0.021373235 -0.052979168 0.008597697 -0.12937525 0.06874065
-0.12899336 -0.037658427 0.08901181 0.045717716 -0.07795376 0.0077580097 -0.12694024 -0.06407793
-0.083191566 0.015405831 0.0082021775 0.022196453 -0.022526199 -0.093731746 0.018750915 -0.09168322
0.021771893 0.07090248 -0.05266051 -0.15533933 -0.050825592 -0.1261401 0.03084672 -0.06972737
0.11019002 0.011740442 -0.0936235 -0.10901603 -0.023616422 0.09830535 0.047814414 -0.066208124

encoder.bias_ih_l0 f4 [256]
00000000: 33da d7bd 8700 83bd 286a 7ebd b3b3 943d
00000010: c7ff 803d 1980 e3bd 2b53 493d 8b16 fcbd
00000020: 3068 dbbd e321 3c3c 064f 4c3d 3f61 45bd
00000030: d99b adbd a926 1fbd 77e0 06bd 90c0 74bd
00000040: b0e1 e13d daaf 0e3c 0c20 7abd 823e 953d
00000050: 875f b3bd 8796 39bd 187f 3dbd 3579 ddbc
00000060: 2d11 a63d b052 db3c 699d 093e f0d6 a2bd
00000070: 10c5 f23c a87a bf3d 6387 d83c c953 0c3e
00000080: a7a4 f5bc d968 e0bb 394f d83d f351 d83c
00000090: 427d cbbd 52bb ecbd b09b 043d c704 a8bd
000000a0: 256a 923d 7719 023d 42e3 af3d b09d 063e
000000b0: 8fd8 a43d a752 8fbd 2893 bbbd 187f e63c
000000c0: 729a b3bc b8e6 59bd 93e2 a03d 58c6 263e
000000d0: b790 173d d76d ea3d 54bd 883c 61da fd3d
000000e0: 536a 953d 6a4d 4f3d d5a2 b8bd 0e46 d8bd
000000f0: 2d49 86bd fe04 83bd 99b6 85bd e75b a43d
00000100: c1cb dd3d 0fb5 8abd 5c44 7abd 7a62 e23d
00000110: 0a94 733c 0402 3ebd 6e8f fa3b 0230 633b
00000120: 85e8 fc3d 47af 79bd 107e 173e a155 993d
00000130: 3b02 b1bb baa5 d2bc fc13 e43c c9ba 89bc
00000140: 937e d8bb e06f 813d b455 fb3b 9676 78bd
00000150: 45f4 c83d 8778 f23d efbb d9bb f031 433d
00000160: 2543 a83c ee1d 093e 2702 d73d 674d 903d
00000170: e640 323d ec71 3cbd 64dc 153d be3c ea3d
00000180: efb3 8bbd 9b37 c5bd 3546 c73d 8c45 a63d
00000190: 5e1f fa3c 5bf2 a6bc 0be7 d13c 1d10 063d
000001a0: 328b 26bc 2f42 bebd 2900 96bd 2430 823d
000001b0: 9494 83bd 7923 c03d d15c 9abd cde1 cb3d
000001c0: d44a 70bd 052c a0bd aa7d c23d 48a3 2bbd
000001d0: 88ab b9bc 6ad6 da3d 0c31 653d 30db 1e3d
000001e0: b993 ba3d a80a d2bd 9917 29bd 6aaa bfbd
000001f0: b193 72bd 2c61 113e 91a6 23bc 6337 c03d
00000200: 1f3b 37bd f9f4 c6bc 8c85 af3d 5c08 60bd
00000210: f2ab 033d 93fd c6bc fefa 9f3b f088 ac3d
00000220: 3364 d1bd 238f 0e3e c628 16bd 8f9d f13c
00000230: bd0d de3d e4ce e93d ac62 823d 82d2 e83c
00000240: 94b8 003d 9736 e43d ef4c 9c3d 8411 cd3d
00000250: 4b4f 41bd 7b88 0bbe 535b 8cbd 41ad d0bd
00000260: 8c08 cbbd 135a ab3d 4dcd c1bd 579a babd
00000270: 88f9 713d 8d5b c23d ac55 533c a740 a03d
00000280: 44aa 03be 826e 17bd 65c0 c93c cf11 c9bc
00000290: a6ec 07be 42fc 82bd a823 03be 15fa bbbb
000002a0: da5a e53d 211c 03be 044a d33d 5c35 47bd
000002b0: 5cd9 933d 7b9c 7abc d49b 5fbd 83c6 ba3c
000002c0: 83d5 cebd 6e7e ee3d e5d3 ca3d 382b 973d
000002d0: efba 683d 7903 973b f209 8f3d 756f 73bd
000002e0: 6492 0e3e 51ab 67bd d96f 93bc 4358 90bd
000002f0: 8c87 5b3d 3219 c1bc 4375 d4bc 5589 273c
00000300: d884 8abd 6c7a d53d 40b0 1f3d 6600 5f3d
00000310: f828 8fbc 4512 493c 9447 de3c 94a5 efbd
00000320: 46d1 033e 8e5f aabd d4ef e43c a62e e5bd
00000330: dc89 a7bd f8ef aabd 7aa1 d6bd bb7d f5bc
00000340: a199 b73c 8569 3f3c ada2 5cbd 5ba1 b93d
00000350: 0633 fd39 33f0 d3bd 9098 9c3d 8595 a23c
00000360: 54e2 9c3c 5cc9 0c3d e371 12bd 835a 853d
00000370: d861 e03d e9d0 003e fcbd febd 7fe5 843d
00000380: a841 933d 9b27 2cbd 3aba 6fbd ef06 70bd
00000390: 3ce0 f4bc fc5c 8ab9 acef 6f3d 91f6 e23d
000003a0: cfc4 b0bc aed0 633d 9c75 db3d e0aa 8abd
000003b0: d15d 58bd ce3b 993b b3d4 843c 9e2d 4c3d
000003c0: 3a51 ff3c 5303 2cbd 9016 ae3d 0f82 843d
000003d0: ec5f 8dbd b225 083e 068d 57bd 4824 96bd
000003e0: d9e9 b4bd 0922 d23d 4440 0a3c 4203 7abd
000003f0: cdef d03c b03b ec3c 91bd 713d f626 38bc
-0.10539665 -0.06396585 -0.062112957 0.072608374 0.06298786 -0.11108417 0.04915158 -0.12308987
-0.107132316 0.011482689 0.04988005 -0.048188444 -0.08476991 -0.03885523 -0.03292891 -0.059753954
0.110293746 0.0087089185 -0.06106572 0.07287313 -0.08758455 -0.04530957 -0.046263784 -0.027035335
0.08108745 0.026772827 0.13438953 -0.07951152 0.029634982 0.09349567 0.026431745 0.13703837
-0.029985739 -0.0068484363 0.105619855 0.026406264 -0.099360004 -0.11559166 0.032375038 -0.08204036
0.07149152 0.031762566 0.08588268 0.1314609 0.08049118 -0.069981866 -0.09158927 0.028136775
-0.021924231 -0.053198546 0.078557156 0.162866 0.037003245 0.114467315 0.016691841 0.12395168
0.0729567 0.050610937 -0.09015433 -0.10560237 -0.06556926 -0.063974366 -0.06528968 0.080253415
0.108298786 -0.067728154 -0.06110035 0.11053939 0.014866838 -0.04638864 0.0076464927 0.0034666066
0.12349037 -0.060958173 0.14794183 0.074870355 -0.005401877 -0.02571379 0.02784156 -0.016812699
-0.0066068857 0.063201666 0.0076701287 -0.060659967 0.09812216 0.11839395 -0.006644718 0.047655046
0.02053983 0.13390324 0.104984574 0.07046013 0.043518923 -0.046007082 0.036587134 0.11437367
-0.06821429 -0.096297465 0.09730188 0.08118734 0.030532535 -0.020379236 0.025622865 0.03273021
-0.010165023 -0.09289967 -0.07324249 0.06356838 -0.064248234 0.09381766 -0.075372346 0.099551775
-0.05866511 -0.07820896 0.09496625 -0.041903764 -0.0226648 0.106854275 0.055954978 0.038783252
0.09110207 -0.10255939 -0.04128227 -0.09358676 -0.05922288 0.14197224 -0.009988443 0.09385564
-0.044734117 -0.024286734 0.08570394 -0.054695472 0.0321464 -0.024290835 0.0048822155 0.08424556
-0.102241896 0.1392179 -0.03665998 0.029494075 0.10842464 0.114164144 0.063664764 0.02842069
0.031426027 0.11143225 0.076318614 0.100131065 -0.04719476 -0.13626282 -0.06853356 -0.101892956
-0.099137396 0.0836679 -0.09462986 -0.09111469 0.059075862 0.09490118 0.012898844 0.078248315
-0.1285792 -0.036970623 0.024627874 -0.024544625 -0.13273868 -0.063957706 -0.1280657 -0.005736599
0.11198969 -0.12803699 0.10316852 -0.04863487 0.072191924 -0.015296097 -0.05459197 0.022799736
-0.10099318 0.11645208 0.09903697 0.0738129 0.0568189 0.0046085683 0.06984319 -0.059432466
0.13923031 -0.056559864 -0.017997669 -0.070480846 0.053596064 -0.023571584 -0.025934821 0.010225614
-0.06763619 0.10423741 0.038986444 0.05444374 -0.01747559 0.012272422 0.02713374 -0.117015034
0.128728 -0.08319007 0.02794639 -0.11190538 -0.081805915 -0.08346552 -0.10480018 -0.02996718
0.022412123 0.011682873 -0.053866077 0.09063979 0.00048293936 -0.10348549 0.076462865 0.019846687
0.01915089 0.03437172 -0.035753142 0.06511404 0.10956162 0.12579693 -0.124385804 0.064890854
0.07190257 -0.04202996 -0.05852721 -0.058600362 -0.02989208 -0.0002639069 0.05857818 0.11082185
-0.02157822 0.055618934 0.107157916 -0.06770873 -0.052823845 0.0046763187 0.016214704 0.04984819
0.031166662 -0.041995358 0.08500397 0.06470119 -0.06903061 0.1329563 -0.052624725 -0.07331139
-0.088336654 0.10260398 0.008438174 -0.061038263 0.02550497 0.028837055 0.059018675 -0.011239758

encoder.bias_hh_l0 f4 [256]
00000000: 45d6 81bd 333a 9cbd 1218 903d 9086 d63d
00000010: df82 3e3c b93a a43d 797b fbbc eafe 83bd
00000020: c1a3 e33b 156b 97bd 163f 0b3e cf8f b6bc
00000030: 8057 ee3c 3078 c33d 1854 273d 5439 a0bc
00000040: fe7b 0d3d c57e c43c 1ebc 9c3d 2af3 033e
00000050: 43d6 cb3d e3bb f43c 351b fd3d 117a d0bd
00000060: a069 83b8 3b33 46bd dce5 d23d 5733 573d
00000070: 16ff dabd f958 6fbd abb2 cd3c e546 933c
00000080: 2fd6 563c ee69 02bd fc46 443c 84bd 973d
00000090: 03c9 613d 782e cf3d 682c 713d 472a 25bd
000000a0: 8408 163d 6381 e33d 58ce eebd b13d 603c
000000b0: 389e eabc eb50 ec3d 9a3f a23d 159d d6bd
000000c0: d433 b33d 9848 bc3c 0b61 ae3d 3927 a43d
000000d0: deca 8d3b cd4d f8bc ce67 bfbd 031c dc3d
000000e0: 5107 b73d 59d8 273d 9cdf 053e c994 393d
000000f0: 1e2b 3ebd 7040 a6bd d390 c93d 387d 97bc
00000100: 3b31 233d e3cd bcbd 0d60 563d a69f 763c
00000110: fb9e d63c 66e3 c63c 9268 bb3d 8c28 41bc
00000120: 817e e43d 8db6 2f3d 9249 563d bd18 b63d
00000130: e3b3 113e 6708 05bd fe85 12bd 5300 82bd
00000140: 6b73 40bd 7534 dcbd 07d3 c8bd 3b79 91bd
00000150: dc88 87bd e361 c93d 6bc9 92bd 2962 8a3d
00000160: 5e00 0d3e be3b b03b 97d6 c73d 1406 6fbc
00000170: 1204 3c3c 798e e7bc b1d8 81bd c592 27bd
00000180: 5630 5b3b b528 e23d 3b24 c33b 650a c13c
00000190: 48e6 ed3d 772a d3bd 206e 07bc 92f6 e1bd
000001a0: 2888 e53c 8a52 95bc 42b4 3c3c 974a a1bd
000001b0: ec64 c3bd d589 92bd cafa 06bd 3553 043e
000001c0: 3699 6abc 3b3f 93bd 7ba0 9cbc 8a2b 39bd
000001d0: 53ad cebd 60d8 023d 8e82 c03d c23f 2c3d
000001e0: 2b5e 0e3e 84f5 a4bc 275e 79bd eed4 d83d
000001f0: 84c0 fc3d 9f7a cd3d efc5 bf3d 1976 b63d
00000200: 99c2 f7bd f43a eebd 40a9 94bd 3ca4 2a3d
00000210: 2894 9d3d 34f7 e53d f665 5dbd caa5 d33d
00000220: e2b8 56bc 8b81 e53d a369 833d 11b4 a53d
00000230: 3915 ecbd f442 2a3d 1ecd eebd effd a0bd
00000240: 7035 28bb eb9b acbd 1e91 4e3d ad76 48bd
00000250: 3eba 7a3b efd3 bebc c90c 83bd e95b 03be
00000260: b757 fcbc 0188 e63d 0815 10bd 5484 3dbd
00000270: 4743 073e 7530 05be b8a6 9abd 84dc 74bd
00000280: 6b5a 4c3d 820c 383d 8c15 af3d 577c c93d
00000290: c25d 5abc edcc 173c 28c3 7bbd 7ba0 c1bc
000002a0: 2a06 e33d 0ec6 b5bb 692c c03c 0d5b 85bd
000002b0: f284 e33d 1e96 a83d 1297 91bd 2eec d9bd
000002c0: f041 02be 2a46 ae3d ce72 953c d1b8 e53c
000002d0: 6000 0c3d 3fb8 e93c af90 d1bc 0995 49bd
000002e0: 8c51 303d 202b 01be ca13 033e 69ff 133d
000002f0: ecf4 2bbd 2e07 093e 439b b2bc a6fa d0bd
00000300: f2fd bcbd 50cb 0c3d 9300 a33c 7d03 c6bd
00000310: db36 edbd 758b 973d 9362 ea3d d01f 913c
00000320: df57 983d 5253 ed3d fe93 0e3e 1dc4 a63c
00000330: 49db ebbc 557e 0f3e ec32 b23c 61ec e1bd
00000340: 0789 bbbd 5edd dd3d e5c0 9abd 354b 89bd
00000350: 4895 a03c 999f 013e a3b6 6fbd 3201 b03d
00000360: 0cf0 33bd e13a e33d 895d 7a3d 64a7 ffbc
00000370: 2efc 2f3b ed2f c63d 685a 2ebd c3d6 6f3d
00000380: 39b2 06bd dace 8dbd d85d b43d 0c0c cabd
00000390: 9dc6 fe3d 7ad4 053d d6ff c1bb 7363 52bd
000003a0: 3c33 c5bd 3dd5 85bd c61f 9f3d 1062 9bbd
000003b0: e1dc 013c 3927 b1bd c014 953d 8ada 823d
000003c0: 2f05 ad3d 3096 003d c439 043e a851 cf3d
000003d0: 4474 c1bc b423 eb3d 6b35 423d c9ad 5a3d
000003e0: 5971 bd3d d4d3 0a3e 58e5 fd3c a872 d23d
000003f0: 4d09 4b3c dded 033e 18bb 59bd 2abe 103c
-0.06339697 -0.07628288 0.07035841 0.104748845 0.011627882 0.08019013 -0.030698525 -0.064451054
0.006947011 -0.07393471 0.13598284 -0.02228537 0.029094458 0.09544408 0.040851682 -0.019558586
0.034542076 0.02398623 0.07653068 0.12885728 0.099529766 0.029874748 0.12358705 -0.10179532
-6.266241e-05 -0.0483887 0.102977484 0.052539196 -0.10693185 -0.05843446 0.02510961 0.017978141
0.013112589 -0.031839304 0.011979815 0.07409194 0.05512334 0.10116285 0.05888024 -0.040323522
0.036629215 0.11108663 -0.11660451 0.013686583 -0.028639898 0.115388714 0.07922287 -0.1047918
0.0875012 0.022983834 0.08514603 0.08015294 0.004327162 -0.030310536 -0.09345971 0.1074753
0.08936942 0.04097781 0.13073581 0.04530791 -0.04642784 -0.08117759 0.09842076 -0.018492326
0.03984187 -0.09218957 0.052337695 0.015052712 0.026198855 0.024278354 0.091508046 -0.011789452
0.11156941 0.042898703 0.052316256 0.08891437 0.14228778 -0.032478716 -0.035772316 -0.06347718
-0.04698507 -0.10752193 -0.09805875 -0.07103201 -0.06617901 0.098331235 -0.07167324 0.06757004
0.13769671 0.0053782156 0.09757727 -0.0145888515 0.01147558 -0.028266178 -0.06340159 -0.040911455
0.0033445559 0.110429205 0.0059552467 0.023564527 0.11616188 -0.10310834 -0.008266002 -0.11033358
0.028019026 -0.018227834 0.011517586 -0.07875555 -0.09540734 -0.071551956 -0.032954015 0.12922366
-0.014318755 -0.07189795 -0.019119492 -0.045207538 -0.10091653 0.031944633 0.09399901 0.04205299
0.1390311 -0.020136602 -0.060880806 0.10587488 0.12341407 0.10033154 0.09363925 0.08909244
-0.120976634 -0.11632338 -0.072588444 0.041660532 0.07694274 0.11228791 -0.054052316 0.10334356
-0.013105603 0.11206349 0.06416633 0.080909856 -0.115274854 0.041567758 -0.11660217 -0.07860934
-0.0025666617 -0.084281765 0.050431363 -0.048941303 0.0038257982 -0.023294417 -0.06398923 -0.1282803
-0.030803544 0.112564094 -0.035176307 -0.046268776 0.13209258 -0.13006766 -0.0755133 -0.059780613
0.049890917 0.044933803 0.085490316 0.09838169 -0.013328018 0.009265167 -0.061465412 -0.023636093
0.1108516 -0.0055472916 0.023458676 -0.06511507 0.11109342 0.082317576 -0.071088925 -0.10640751
-0.12720466 0.085094765 0.01824322 0.028042229 0.034180045 0.028530238 -0.025581686 -0.049214397
0.04304652 -0.12614107 0.12800518 0.03613225 -0.041981623 0.13381645 -0.02180255 -0.102040574
-0.09228124 0.03437358 0.019897735 -0.09668634 -0.115827285 0.07399646 0.11444583 0.017715365
0.07438635 0.11588158 0.13923642 0.020357186 -0.028791087 0.14013036 0.021752797 -0.11031414
-0.09156995 0.10833238 -0.07556323 -0.06703798 0.019602433 0.12658538 -0.058523785 0.08593978
-0.0439301 0.11095215 0.06112436 -0.031207748 0.0026853192 0.0967711 -0.042566687 0.058554422
-0.03288481 -0.069242194 0.08806962 -0.09865579 0.12440226 0.032673337 -0.0059203906 -0.051364373
-0.09628913 -0.065348126 0.07769732 -0.07587063 0.007926197 -0.08650059 0.072793484 0.06389339
0.08448254 0.03139323 0.12912661 0.101229966 -0.02361501 0.11481419 0.047414225 0.05338839
0.09250135 0.13557369 0.030993149 0.10275775 0.012392354 0.12883706 -0.053156942 0.008834401

latent.weight f4 [32, 64]
00000000: ad69 9dbd 35b6 0abe 0a1d 82bc 221b a3bd
00000010: 8fc8 853c a3f5 d3bd e245 593d f05b 0f3e
00000020: 0125 c2bd 3e21 1c3c 331c 90bb 0d68 3ebd
00000030: 36b0 0cbc 349f 4f3d 212f 82bd dd0c f5b9
00000040: 5e45 f03d 01f3 d9bc b275 513b dd29 093c
00000050: febb 4c3d 1a85 2cbd e750 34bd 35dc 75bd
00000060: 707e ffbd 5595 0c3d e452 99bd 4c97 d33d
00000070: 6dac a7bb e76e 2ebd c726 0fbc 78df 973d
00000080: aeba 76bd cb73 a1bd 84d6 0eba f539 58bd
00000090: 0bd7 403d b471 e7bd 0110 e13c d74d 963d
000000a0: 2ed9 ad3d 8500 173d 3268 80bc db15 41bd
000000b0: 50c8 a73d 70b1 e6bd 96fb 783c 91cd cabd
000000c0: 8c0d bb3d 7173 053e 2f9a 013e 6c44 e83d
000000d0: 4e18 84bd fe8f c33d f4a3 db3d ee41 ab3d
000000e0: fecf 8c3d 007b f03c 57bc eebc 75ea 193d
000000f0: 15a8 0fbd aac1 9b3d bbfa 98bd 9f63 8b3d
00000100: 8da7 1cbd d467 103d 92c6 ce3d bdde 02be
00000110: 497e 02bc 37ec cdbd 3a44 133c 8932 eb3d
00000120: 2980 c2bd 4e7d c2bd 15ec 043e 9409 74bd
00000130: e0a6 383d 90ea bd3d bef1 81bd b6dc fd3c
00000140: f521 f33d cc6b 08be 31e4 bcbc b3a3 a63d
00000150: 379d 873d 22ab b33d 47a9 8dbd 2a3c 753d
00000160: 3b97 d73d abc0 97bd 0047 1e3c 425b 483d
00000170: 4884 4d3d 9024 063c b4ff 113d b887 36bb
00000180: 7a13 c23d 409a 033d ecfd 7ebc c0c0 c83d
00000190: a62a 6e3d 201b 463d daca 69bd ab5a 4fbd
000001a0: f3e9 c93d fe2a 84bd ccc7 b8bc 0385 bd3d
000001b0: 708d 923d b070 c23d f14f b33a 450f 383c
000001c0: 633c e43d 8a61 04bc 4591 a0bd 5373 843d
000001d0: 8f6b d03d ee7c 833d 4105 82bd b499 413b
000001e0: d5c3 a23d a826 11bd bcc6 1a3d b3aa 31bd
000001f0: 5976 c93c 2a66 7e3d 112d 933d 9717 983d
00000200: 14ab 823d 6b46 b93c 1b56 473d e086 f93c
00000210: 487b fa3c 5d1f d13c 183d bbbc fe14 e83d
00000220: 4151 82bd a528 bc3d 8784 153c b146 373b
00000230: ed4e e8bd 6e46 e63d c4f7 04bd df84 983c
00000240: 18c7 05bd 6e12 9a3d efd2 a93d 0de7 58bd
00000250: 0da4 043c d72f e3bd 0929 823d cbfc cfbd
00000260: b72c 43bc 83b0 fa3c 2818 fcbd 7a10 aabd
00000270: 4131 5f3d edc1 96bd 465d e83d 2d6e 323d
00000280: 6247 0dbc 41e6 b5bd a24b c03d 13bb 12bd
00000290: 5af7 47bb 275a 443d e5b3 08be 7f69 be3d
000002a0: e77d a8bd f386 413d 08b5 ccbd 47ce 363c
000002b0: caed 0a3e 4c3c 53bd 007e c5bd 753a 60bd
000002c0: 0966 d8bd 46cb 703c adb1 073e cfc3 223c
000002d0: 73f5 bbbd daf3 ec3d f175 97bd 5740 cfbd
000002e0: a910 ee3d 7b99 d9bd 4ffb b3bc bd60 84bd
000002f0: a309 3e3c 7aa6 f73d b617 03be 3f90 42bc
00000300: e1bc 043e d5fd 813d b7d2 25bd 754f d6bd
00000310: 39dc 723d 4c5c 853d 2fa6 f33d c25d 633d
00000320: 3d83 f73a c963 f5bd 3ccb ebbd 176b fcbd
00000330: ef64 5fbb 219f 943d 4fbf 8d3d c744 79bd
00000340: 074d ae3d 9544 d2bd 5d47 563b 4d71 cfbc
00000350: 5606 1fbc 0caa a83c 1ce7 f53d eeca 263d
00000360: cd91 9bbd f9f6 90bd 1f60 60bc 90bb f5bb
00000370: 7b29 f1bd 295d 833d 4d5c 21bd 5bb0 cbbd
00000380: a8e1 9a3d 7ea3 bbbc 53b6 84bd 677f 9c3d
00000390: 6290 093e 393f a43c 67f6 013e 23fb ad3d
000003a0: b606 69bd 8bcf a93c 049e d33d e551 ce3d
000003b0: 3428 debd be09 a2bd 92ce c2bd a1b9 133e
000003c0: 1c8c 963b 9918 9f3d 147f 773d 212d f53c
000003d0: d7cc 8fbd bae3 f03d 88dc c73c c28e 2f3c
000003e0: d432 14be 3edb 50bd 80ed 9ebd 00bb 7ebd
000003f0: a096 4b3d 1eca c53d 8c9b 173d 3a0d 1dbd
-0.07686172 -0.13546069 -0.015882988 -0.079641595 0.016330985 -0.10349586 0.05304516 0.13999915
-0.09479714 0.00952941 -0.004397893 -0.04648595 -0.008586934 0.050688937 -0.063566454 -0.00046739625
0.11731981 -0.026605131 0.003196102 0.008371797 0.04998397 -0.042119123 -0.044022467 -0.06002446
-0.12475288 0.0343221 -0.07486513 0.10331592 -0.0051169903 -0.042586233 -0.008737273 0.0741567
-0.060236625 -0.07883414 -0.00054488354 -0.052789647 0.04708008 -0.11300984 0.027473452 0.073390655
0.08488689 0.03686573 -0.015674684 -0.047139984 0.081925035 -0.11264312 0.0151967015 -0.0990249
0.09133443 0.13032319 0.12656473 0.113411754 -0.06449948 0.09548949 0.10724631 0.083621845
0.06875609 0.029355526 -0.029142542 0.03757711 -0.035072405 0.07605298 -0.07469698 0.068061106
-0.038245726 0.03525527 0.10096468 -0.1278028 -0.007964679 -0.1005482 0.008988434 0.11484248
-0.09497101 -0.09496556 0.12980683 -0.059579447 0.04508102 0.09273255 -0.06344937 0.030989032
0.11871711 -0.13322371 -0.023058029 0.08136692 0.06621783 0.08772875 -0.06917053 0.05987183
0.10526892 -0.074097954 0.009660482 0.048915155 0.05017498 0.008187428 0.035644248 -0.002785189
0.09476371 0.032129526 -0.015563469 0.09802389 0.05814614 0.048365712 -0.05707822 -0.050623577
0.098590754 -0.064535126 -0.022556208 0.092538856 0.07155883 0.0949415 0.0013680441 0.011234109
0.1114433 -0.008079896 -0.07840208 0.06467309 0.10176765 0.06420313 -0.06348658 0.0029541077
0.07947508 -0.035437256 0.037787184 -0.043375682 0.024592565 0.06210915 0.0718633 0.074263744
0.06380287 0.022616586 0.0486661 0.030459821 0.030576363 0.02552765 -0.02285628 0.11332129
-0.06363154 0.0918744 0.009125835 0.002796572 -0.11343179 0.11243902 -0.03246285 0.018618045
-0.032660574 0.075230464 0.082921855 -0.052954722 0.008095753 -0.11093109 0.06355483 -0.10155638
-0.011912516 0.030601745 -0.12309295 -0.08303924 0.05449033 -0.07361207 0.113459155 0.043562103
-0.008622976 -0.08881808 0.09389426 -0.03582294 -0.0030512423 0.04793754 -0.13349874 0.092974655
-0.08227139 0.04724784 -0.099954665 0.011157579 0.13567272 -0.051571175 -0.09643173 -0.05474325
-0.10566337 0.014696902 0.13251372 0.00993438 -0.09177675 0.115699485 -0.073955424 -0.10119694
0.116242714 -0.10624977 -0.02197042 -0.06463764 0.011598977 0.120923 -0.12802014 -0.011875211
0.12962677 0.06347243 -0.040484156 -0.10464374 0.059292052 0.06511745 0.118969314 0.055509336
0.0018883717 -0.11981923 -0.11513373 -0.12325113 -0.003408726 0.07256914 0.06921255 -0.060856607
0.085107855 -0.10266987 0.0032696344 -0.02532258 -0.0097061 0.020588897 0.12006971 0.040720873
-0.07596169 -0.07078356 -0.013694792 -0.007499166 -0.1177549 0.06414253 -0.039394666 -0.099457465
0.07562572 -0.022905108 -0.06480088 0.076414876 0.13433984 0.020049678 0.12691651 0.08495166
-0.056891166 0.020728847 0.103328735 0.10074214 -0.10847512 -0.079120144 -0.095120564 0.1442628
0.004594339 0.077683635 0.060423926 0.029928746 -0.07021492 0.117621854 0.02439715 0.010715188
-0.14472514 -0.050990336 -0.07760143 -0.062190056 0.049704194 0.096576914 0.037013575 -0.038342692

latent.bias f4 [32]
00000000: 0cdd 21b8 4e2c a6bd 1449 e5bb d4f4 cc3d
00000010: f755 18bd 3318 c0bd a453 cbbd 44d0 61bd
00000020: 6ebf babd 72be e2bd cba8 cbbd ac7f fabd
00000030: 6092 923c 7ca2 d13b 85c1 a7bd 3bf0 75bc
00000040: eb95 9b3d 6cfe a9bd b675 703c 0554 843d
00000050: eba9 f03d b8e7 9a3d 177a f1bd eebf 4b3d
00000060: 0d40 9c3c 4556 a1bd 9fc8 bb3c 0e0e 493d
00000070: c06e de3d 9de7 a9bc a14e cd3d 7501 a3bd
-3.8591257e-05 -0.08113919 -0.006997237 0.10007635 -0.037191357 -0.09379616 -0.099280626 -0.05513026
-0.091185436 -0.11071481 -0.09944304 -0.12231383 0.017892063 0.0063975435 -0.08191208 -0.015010889
0.07596954 -0.0830048 0.014676502 0.06461338 0.11751159 0.07563728 -0.11790865 0.049743585
0.01907351 -0.07877783 0.022922812 0.04908567 0.10860968 -0.020740325 0.10024763 -0.07959262

decoder_input.weight f4 [64, 32]
00000000: 90de 17bd 88de 9dbd 7f83 10be 9387 013e
00000010: 62a9 873d 53fb f0bd 0a25 6dbd 6e50 28bd
00000020: b465 13be de01 2a3e f378 23be 9c46 043e
00000030: 59cc ee3d 8d5e 063e ab21 ae3d 2170 17be
00000040: bd03 78bc 72f4 25bd 52b3 75bd cdc5 0a3e
00000050: 7d55 213e a95e ad3d 027a 193e edb4 ccbd
00000060: 9b42 ddbd e2bb aa3d db9f 0a3a ccd3 a4bd
00000070: 274b f0bb bf61 1abe 4e70 10bd d6b4 963d
00000080: 096d d6bd 6445 173c 8c19 75bd 712f 643d
00000090: 77c4 18be 52dc b2bc 38c6 b5bd bec9 14bd
000000a0: dfde 23bd 07a6 ee3c 330b bd3c ba9d ca3d
000000b0: a595 3c3d 83b5 b53d 729e 93bc ba27 ec3c
000000c0: 861c 98bd 0b40 053e d66e d7bd be92 2e3d
000000d0: 902a 9d3d 1d7b 0f3d bf4f 5f3d 35c1 033e
000000e0: 1a78 1cbe f40c 91bd 387a c23d 83d7 2c3e
000000f0: 46ea 5b3d 5164 5d3d 9c7a 03be 6fe8 31be
00000100: e078 0abe 5e7b c73d 7eee a7bc 9470 d93d
00000110: b3df 20be 58ea 17be 71a9 3ebc c262 39bd
00000120: 8216 1fbd 79d5 9f3d 2bf2 19be 3dd6 413e
00000130: 79aa f43d b334 3fbe 0a43 bcbd 89d8 aa3d
00000140: b4dc fcbc 4031 1ebe fbae 2c3d cc8e 55bd
00000150: b3a0 013d 7a61 cb3d 7bb9 91bc be1d ac3d
00000160: 5d7d e23d d25d ecbd 4605 10be df65 ad3d
00000170: 3db5 d53d 81fd 073e 0c8e 123e c06e 2ebd
00000180: 290b 273c 25c4 07be c3b2 9abd 7a5c eabc
00000190: 054b 243e 8b96 b53d 0a71 01be a392 363e
000001a0: a69b 12be e384 c4bd d585 d9bd 7e1f 1c3e
000001b0: 940f 77bd 67d5 94bb c901 1e3e ce7c bb3d
000001c0: e648 00be 620c 1ebe 7b01 f6bc db4c 0dbd
000001d0: e365 d13d d48a c43d 4789 d33d 979f 04be
000001e0: f783 38bb 7567 f1bd 0c8c 6abd 767d b2bd
000001f0: 3fa9 c33c dbd6 1fbe e50a c3bd 7f21 8c3c
00000200: 9eb8 2bbe b7e7 a3bc f2a1 39be 0a86 e8bd
00000210: fc1b 21be c83b 633d 254c b1bd 46f4 8a3d
00000220: dabd 9e3d 7590 993c 538d 203e c256 123a
00000230: d27f a9bd 4f81 613d 0e98 f9bc ad5c b1bd
00000240: 7e28 07bd fab6 4b3c f3ef 08be 9691 12be
00000250: 54cb 1dbd c725 11bd 312d 8e3c 9616 28be
00000260: 1f2e c83d 658c 823c 6617 493d 9df9 7abd
00000270: 6bb8 ec3d 8f3c dd3d b881 be3d 2ab8 18be
00000280: 4b96 dbbc f6b8 403e aade 06be 4d6f 1a3e
00000290: af80 013e 0a1a 3138 4bbd e93c 609a 71bd
000002a0: 050c 133d b148 4fbd e4b0 adbd d8f3 9f3d
000002b0: aec5 2cbe d80d 05be 9320 77bd e0aa d2bc
000002c0: 3adb 053e 75ff 263e 0586 193e 4067 c4bd
000002d0: e2ce ff3d bec0 b3bd 27c1 df3d f168 193e
000002e0: 51cf 31bd 9730 093e 550a 06be f039 b6bd
000002f0: 8634 b03d 91bc 3d3e c6af 043e 5e21 c43d
00000300: e39c b93d b0c4 363e c96e 0cbe de8f 833c
00000310: 6396 be3d 9275 9ebd 45b1 d23d 656f 03be
00000320: 720d ecba 12f0 473d 2706 55bd 7eb8 223e
00000330: 0ab4 bfbc 77ed 2abe e728 f43d 9e1f 1bbd
00000340: 6c5e c83b aa09 323e 2ecf 123d 0119 313e
00000350: a485 0fbe 738f 99bd 1c12 21be 9a40 293e
00000360: 05e1 423d 3930 103e fa89 0dbe fc93 f93d
00000370: 74ed 1f3e ce46 20be af31 3dbd c163 6fbc
00000380: 00f6 d3bd dc62 ffbd e7f7 213e f91b 24be
00000390: 48e9 db3d b9a9 3dbe 129a 5c3d 0947 cabd
000003a0: 79ea 0d3e 86a2 e63c 16c2 c7bc 7ca9 23be
000003b0: b0b1 813d 4d49 9cbd aae9 e4bb 159c 6b3c
000003c0: c3cf 393e bbe2 d6bd 16c7 22bd 001e 00bd
000003d0: 4fe4 13be 2708 a13d 957d 21be d96e 053e
000003e0: 5d6b 923d 284b c0bd 5286 05bd cdda f4bd
000003f0: 17ef b9bc 97ac 8e3d 6b92 27bd b744 973c
-0.037077487 -0.0770846 -0.14112662 0.12649374 0.06624104 -0.11766686 -0.05789665 -0.04109233
-0.14394265 0.16602275 -0.15964107 0.1291756 0.1166007 0.13122006 0.085025154 -0.14788868
-0.01513761 -0.040516324 -0.059985466 0.13552018 0.15755267 0.084653206 0.14987949 -0.09995446
-0.108037196 0.08336617 0.00052881025 -0.080482095 -0.0073331776 -0.1507635 -0.035263352 0.073587105
-0.104700156 0.009232853 -0.059838817 0.055709306 -0.14918695 -0.021833573 -0.08875698 -0.03632521
-0.04000747 0.029131902 0.02307663 0.09893365 0.04604115 0.08872511 -0.018019889 0.028827537
-0.074273154 0.13012712 -0.10519187 0.042620413 0.07674134 0.03502952 0.05451941 0.12866671
-0.1528019 -0.07082549 0.094959676 0.16879086 0.053690217 0.054050747 -0.1283974 -0.17373823
-0.13522673 0.09740327 -0.020499464 0.10617176 -0.15710334 -0.14835489 -0.011637078 -0.0452602
-0.038839824 0.078043886 -0.15033786 0.18929382 0.119465776 -0.18672447 -0.09192474 0.08342082
-0.030866958 -0.15448475 0.042159062 -0.052138135 0.031647395 0.099307016 -0.01778864 0.0840411
0.110590674 -0.11541332 -0.14064512 0.08466696 0.10434959 0.13280298 0.14311999 -0.04258609
0.010195532 -0.13258417 -0.07553627 -0.02860855 0.16044243 0.088666044 -0.12640777 0.17829375
-0.14317188 -0.09595659 -0.106212296 0.15246388 -0.06031759 -0.004542041 0.15430368 0.09154664
-0.12527809 -0.15434411 -0.030030003 -0.034497123 0.102245115 0.09596792 0.10328918 -0.12951504
-0.002815483 -0.11787311 -0.057262465 -0.08715336 0.023884414 -0.15609305 -0.09523562 0.017105816
-0.16769645 -0.020007951 -0.18128183 -0.11353691 -0.15733331 0.055476934 -0.086571015 0.06784873
0.07751055 0.01874564 0.15678911 0.0005582386 -0.08276333 0.05505496 -0.030468013 -0.086602546
-0.0329976 0.012433762 -0.13372783 -0.14313349 -0.038523987 -0.035436418 0.017355533 -0.16414866
0.09774422 0.015936086 0.04909458 -0.061273206 0.115586124 0.10802566 0.09302086 -0.14914003
-0.026805064 0.18820557 -0.13170877 0.1508152 0.12646745 4.222434e-05 0.028532645 -0.058985114
0.035900135 -0.050606433 -0.08481005 0.078101814 -0.16872284 -0.12993562 -0.0603338 -0.025716245
0.1307191 0.16308387 0.1499253 -0.09590006 0.12490632 -0.08776997 0.10925513 0.14981438
-0.043410603 0.13397442 -0.13089879 -0.088977695 0.08603768 0.18528964 0.12957677 0.09576677
0.09063127 0.17848468 -0.13714136 0.016059812 0.09306028 -0.077372685 0.10287718 -0.12835462
-0.0018009378 0.048812933 -0.05200782 0.1589069 -0.023401279 -0.16692148 0.11921864 -0.03787195
0.0061147716 0.17386499 0.035842113 0.17294694 -0.14015824 -0.07498064 -0.15729564 0.1652855
0.047577877 0.14080895 -0.13822165 0.12186429 0.15617925 -0.1565201 -0.04618996 -0.0146111855
-0.10349655 -0.12470028 0.15817223 -0.16026296 0.10737854 -0.18521775 0.05385787 -0.0987683
0.13858975 0.02815367 -0.02438454 -0.15982622 0.06332719 -0.076311685 -0.0069858627 0.014380475
0.18145661 -0.10492464 -0.039740644 -0.03127861 -0.14442562 0.07862883 -0.15770562 0.13030566
0.07149384 -0.09389335 -0.0325988 -0.119557954 -0.022697015 0.06966513 -0.04091112 0.018465383

decoder_input.bias f4 [64]
00000000: 27ab 233e 0151 ecbc b820 5a3d afc6 b33d
00000010: 3446 bfbc a857 1cbc 3c38 0cbd 7047 683d
00000020: d42c 72bd d4a3 04be 70a0 033a 0ae6 9bbc
00000030: 80d5 203e cc6c 113e 3fd1 f73d f25c 28be
00000040: 066c 863d 5474 023e 59f4 e33d bf49 37bd
00000050: d25b df3d 5ad7 1d3e d22c 953b 93c0 06be
00000060: fc0e ba3d 5566 8abd 99b2 23be 3f30 20be
00000070: 56a2 063d 2027 183e 735e 383d 4806 63bd
00000080: 6745 513c 43bb ff3c bc12 afbd 1498 c53c
00000090: 127d 1d3d daea b0bd f926 453b 82d6 a2bd
000000a0: ec40 22be f1fd d8bd 9c38 9dbc 93ba 1dbd
000000b0: a05c 853d d607 863d 714f 0abe 7a4c abbd
000000c0: 91b6 cfbd d0d4 973d 6242 33bc c5f6 803c
000000d0: c8f5 063e 76a0 fabd 9acd b23d a601 4fbd
000000e0: fc5b 90bd 8330 d03a 7468 c4bd 7bfb 243e
000000f0: 1f8c 8dbd 163a febc 93ea f6bd 540a 45bd
0.15983258 -0.02884722 0.05325386 0.0877813 -0.023348905 -0.009542383 -0.034233317 0.056708753
-0.059124783 -0.1295312 0.00050211605 -0.01903059 0.15706444 0.14201659 0.121004574 -0.16441706
0.065635726 0.12739688 0.1113059 -0.044748064 0.10906185 0.15414181 0.004552462 -0.13159399
0.09084889 -0.067577995 -0.15986098 -0.15643404 0.03286966 0.14858675 0.04501195 -0.055425912
0.012772894 0.031217223 -0.08548495 0.024120368 0.038449354 -0.086385444 0.0030083044 -0.0795107
-0.15845078 -0.105953105 -0.019192033 -0.03850801 0.065118074 0.06544463 -0.13506867 -0.08364196
-0.10142244 0.07413638 -0.01094112 0.015742669 0.13179696 -0.12237637 0.08730622 -0.05053868
-0.070487946 0.0015883598 -0.09590235 0.16111557 -0.069114916 -0.031033557 -0.1205646 -0.048105553

decoder.weight_ih_l0 f4 [28, 64]
00000000: 4b1e b53e a2ad b23e bda3 123e 9131 eabd
00000010: 6632 12be 1d8e 69be bccf b23e e43c 14bd
00000020: acbc 353e 2f2b 153d abd2 b03c 28a8 52bd
00000030: badf eb3d 4b64 813e d08b a63e 3a64 b63d
00000040: 8f8b 9d3d 769b a43e b2d5 813e 3376 d6bb
00000050: 88e3 92be 9861 a2be 6ab7 68be 5652 1d3d
00000060: e5b5 12be c3e7 55be 4888 0dbe 12de 503e
00000070: 50ea f93d cfcf f4bd 70ff a9be e5bd 9d3d
00000080: 6916 8e3d 9de8 08be 6bae 6b3e 551d 183e
00000090: 931c b03e af3c 823e a707 803e 3453 953e
000000a0: c3bd 21bc 2c4c 813b 6e42 b9bd 6d8c 403e
000000b0: 335b 903e ece6 6e3e 792e 9d3e fc28 85be
000000c0: 2908 783e 8c20 4a3e 0af4 183e 6ecf 9cbe
000000d0: 16b0 a8bd 4406 a2bb 9bcd 35be 7c68 963e
000000e0: c331 b63e 9349 85be ec06 7bbc 4b22 3c3d
000000f0: 9192 853e 7670 a13e 5732 c83e f06f 8cbe
00000100: 8469 e73d b195 3ebc de5c 463e 8ae5 a73e
00000110: 06d8 17be 1ede 93be 58d8 6ebd dd4d acbe
00000120: 695b 513e bbf7 40be 3cdd 183e 6026 9b3e
00000130: a84d b43e 80d8 f2bd f3ee aabe d64a 94be
00000140: 1c96 34be 916b 17be e72b c4be 5793 b03e
00000150: fd30 b43e 5f66 b93e 7889 cdbd 2ac9 bb3c
00000160: 2869 a03e f923 a43e 3395 953e 9d90 54be
00000170: df48 c6be c8b0 d1bd 81de 293d 6294 3d3e
00000180: 9b37 fb3d b733 9a3d cc02 983e a887 cebe
00000190: 8f15 183e 0fd2 5ebe 24a2 bf3d 6cae ad3d
000001a0: 3451 c73d c86c 99be 9387 b3be 658d 92bd
000001b0: 6c3a a1be c56b a33e 5208 a2be db2a b13e
000001c0: f469 123e 10f0 91be cfb9 14be d8b6 38bc
000001d0: a14e 5e3e 3180 c43d 42f8 6bbe 365b 60bd
000001e0: 1901 b03e d845 f83c a0e5 3cbe c28c af3e
000001f0: 21ff 473d a867 81bd 6397 fa3d cd77 9cbe
00000200: ee29 a2be 78c1 0d3e 0faa c1be 515c 7ebe
00000210: 617b aabd 1394 963d c27d a23e 373c a73e
00000220: bad1 c63e a6fd ffbd e34e abbe 9b6f 4f3d
00000230: b6aa 18bd df32 b33e 569a dbbd 7562 a8be
00000240: 127d 373e 1328 133e 9276 3e3d 7498 f83d
00000250: a9a3 9bbd 1734 bbbe 605a 7e3e 17e0 6ebe
00000260: 6886 73be fe03 33be c972 963d 307c f7bd
00000270: fc58 183e 1487 0bbd 10b2 31be e841 813e
00000280: e14c a5be 5062 8ebe 51e3 9cbe 25a2 a6be
00000290: 3a87 30be cf5a 79be f387 b4be 274d 363e
000002a0: c0a3 6f3e a274 65be b9d7 873e 364c 80be
000002b0: 53c6 71be ce3e 95be b7fc 3ebd 196f 183e
000002c0: b54c 723e d4ea 9f3e 63d1 9bbe f270 973e
000002d0: d0b3 0f3e 93a0 903d 586c 253d 63be 2b3e
000002e0: b7d6 abbd 8e15 7dbe f39e 823e 1e0c afbe
000002f0: acd9 903e 6fa8 5dbe 9f81 ba3c 0558 b53e
00000300: 42bc abbe ce41 4bbe 09e3 73be 55bd 9f3d
00000310: fb71 c43e d2e9 413e 8b6c 873d d8ac 4cbe
00000320: c0a9 16bc 1c80 92be 7013 b9be 5fe5 5fbe
00000330: eb0f 34bd 5ddc 8d3e 9d48 063e 7f51 c7bd
00000340: 2131 b13e df4b 963e 733b 22be 33d1 b2bd
00000350: 798a 6a3d 601b 40be fb5d 70be 2ed1 ad3e
00000360: 072f 393e 9d32 8a3d 445a 893d adbc c33e
00000370: 36a9 b73e 151b 5b3e c205 9b3d 9a81 173e
00000380: ff66 9c3c 7938 4d3e 255c 1bbe 5fdf 833e
00000390: 46d5 853e b98e 45bd 281b 293d 614c 2ebe
000003a0: 3d4a 55be c887 d4bd a63f a63e fbfd 27be
000003b0: caaa b9be 4ec8 a63e ea14 e43d 97e1 933c
000003c0: d957 873e b611 ae3e 65be 073d 8ec2 303e
000003d0: 72f4 c1be 54dc 3e3e bd94 933e dcfa b23e
000003e0: 4bd7 92be 3fdd 333e e1f0 9bbe fe8a 9a3e
000003f0: 3515 a1be 85f2 af3e 400e 8d3e 8d16 e43d
0.35374674 0.34898096 0.14320274 -0.11435235 -0.14277038 -0.22808118 0.34924114 -0.036190882
0.17747754 0.036418136 0.02158483 -0.051429898 0.11517282 0.2527183 0.32528543 0.089058354
0.07692634 0.32149857 0.2535835 -0.006544852 -0.28689218 -0.31715083 -0.22726217 0.0384086
-0.143272 -0.20889191 -0.13821518 0.20397213 0.12202895 -0.11953699 -0.33202696 0.07702235
0.06937868 -0.13369985 0.23015754 0.1485494 0.343968 0.25436923 0.25005838 0.2916504
-0.009871903 0.003945848 -0.090458736 0.18803568 0.2819458 0.23330277 0.30699518 -0.2600783
0.24221863 0.19738978 0.14936844 -0.30627006 -0.08236711 -0.0049445946 -0.17754214 0.2937659
0.3558484 -0.26032695 -0.0153214745 0.04593114 0.26088384 0.31531113 0.39100906 -0.27429152
0.112994224 -0.011632369 0.19371364 0.32792312 -0.148285 -0.288804 -0.05831179 -0.33653155
0.20445026 -0.18844502 0.14928144 0.30302715 0.35215497 -0.118577 -0.3338543 -0.28963345
-0.17635387 -0.14787127 -0.38314745 0.3448741 0.35193625 0.36210915 -0.10035986 0.022923071
0.31330228 0.32058695 0.29215392 -0.2075829 -0.3872747 -0.102387965 0.041471962 0.18513635
0.12266465 0.07529395 0.29689634 -0.40337873 0.14851974 -0.21759818 0.09357098 0.08480534
0.09732285 -0.29965806 -0.35064372 -0.07155875 -0.31489885 0.3191816 -0.31646973 0.3460301
0.1429823 -0.28503466 -0.14524005 -0.011274062 0.21709682 0.09594763 -0.23043922 -0.054774486
0.34375837 0.030306742 -0.1844697 0.34287077 0.048827294 -0.06318599 0.12235906 -0.3056015
-0.31672615 0.13843334 -0.37825057 -0.24839903 -0.08324314 0.07352462 0.3173657 0.32663128
0.38831884 -0.124995515 -0.33458623 0.050643545 -0.037272178 0.3499975 -0.107227966 -0.32887617
0.17918804 0.14370756 0.046499796 0.12138453 -0.07599575 -0.3656318 0.24839163 -0.23327671
-0.2378174 -0.17481992 0.07346112 -0.12084234 0.14877695 -0.034064367 -0.17353082 0.25245595
-0.32285216 -0.2780938 -0.3064218 -0.3254558 -0.17239085 -0.24351047 -0.3525997 0.17802869
0.2340231 -0.22407773 0.2653177 -0.25058144 -0.23610811 -0.2914948 -0.046627726 0.1488613
0.23662074 0.31233847 -0.30433187 0.29578358 0.14033437 0.07061877 0.040386528 0.16771846
-0.08390563 -0.24715254 0.25511894 -0.34188932 0.2829107 -0.21646284 0.022766886 0.35418716
-0.33542067 -0.19849321 -0.23817076 0.07799784 0.3836821 0.18936852 0.066125 -0.1998781
-0.009195745 -0.28613365 -0.36147642 -0.21864842 -0.043960493 0.27707186 0.13113637 -0.09732341
0.34607795 0.2935476 -0.1584299 -0.08731308 0.057260964 -0.18760443 -0.2347335 0.33948654
0.18084346 0.06747935 0.0670667 0.38229886 0.35871285 0.2139705 0.075694576 0.14795533
0.019092081 0.20041074 -0.15171869 0.25756356 0.26139277 -0.048231814 0.041285664 -0.17021324
-0.20829101 -0.10377461 0.32470435 -0.1640548 -0.36263114 0.32574695 0.111368015 0.018051906
0.2643421 0.33997887 0.03314056 0.17261717 -0.3788181 0.18638736 0.28824416 0.34957016
-0.2867988 0.17564867 -0.30457214 0.30184168 -0.31461492 0.34364715 0.27549934 0.11137114
